Assets/Hummingbird/NN Models/Hummingbird.onnx (onnx, 320996 bytes, 7 tensors)

network_body._body_endoder.seq_layers.0.weight f4 [256, 46]
00000000: 4f57 e33d d36d ce3d ac80 2e3e 66f5 e0bd
00000010: 7211 483d 91c6 e4bd 3959 023e 35c1 393e
00000020: 6a58 9e3d 7b76 72bd edbd f739 af79 12be
00000030: a08b 293e c81d 483e 26ae 6d3d 8f02 a8bd
00000040: 6f39 02be 47ac 253e d424 823e 0503 45be
00000050: 68c3 693d d9a0 f63d 054d 513c 1be1 303e
00000060: 4743 8f3d 107c 71bd 186f d6bc 3fbd 88bc
00000070: 87e8 ac3b 5a84 583d 86a5 91be 4145 583d
00000080: bc31 11be 9137 58bd 4053 13be 6b79 4dbe
00000090: cfa9 c0bd 4ea0 33be 7c9e 44bd afd8 46bd
000000a0: 949f 533e d65e 0d3e ad20 cdbc 0a1e 2dbd
000000b0: 2965 0c3e 6e22 64be 7da1 243c 7409 b93c
000000c0: 1e69 30be f6d9 09be feca 7b3d db26 613e
000000d0: 3825 74bd 05d8 28be c72d 543c 8ea5 903e
000000e0: de74 0fbc f41e 42be db3d dd3d a59c 5f3d
000000f0: e2d3 c1bd 9e0e ae3e 3316 653e 3edc 923e
00000100: c316 023e a892 4a3e 12a8 0c3d 5063 08be
00000110: afe9 043d 88b4 8cbe 00e1 053e 562d 1dbd
00000120: d894 b9bd d7d1 843e d55d eabd 4a0f 8d3d
00000130: 4f46 95be 94a9 47bc b859 f8bc b0da 283e
00000140: dc13 8f3d 7332 bb3d 8307 063e 02d7 adbd
00000150: 76f7 2f3e 1509 1b3d d495 81be b4b4 53be
00000160: 4d3a c53e f7c9 ce3d f3f3 8dbe 40a4 fabd
00000170: 5953 0e3e 2d6d 1fbd 3a9f 93bb ea26 4e3e
00000180: e3ec 363e 26f5 e53c 2577 d4be 0387 5f3d
00000190: a6d5 473e c829 82be d8d2 edbc c20b 7d3b
000001a0: f53f 66be 1631 a0bd 8ec4 a53d 7221 143b
000001b0: 5d18 693e d253 aabd 5301 023e b24b c23d
000001c0: ccdd ffbd c3ad de3b 85f1 85bc ccfa b33d
000001d0: 1437 3dbe d959 5d3d 300e 85b8 e6ec a8bb
000001e0: c058 57bc 2c4a 11be f528 6a3d ecb6 15bd
000001f0: 3dab be3c 0f2b 9e3d 13ba a33d 44c4 6abe
00000200: 7438 10bd bbb6 64bd 817f 86be 1db6 eabb
00000210: 6e8a 28be 606c 47bd e793 46be 5466 bfbd
00000220: 690e 923e 5550 893e 5c95 873c c28e 81bd
00000230: 69d9 95be c49b 6b3c 95ba 7a3e 54bc 6e3e
00000240: ed6c 00be 355f bc3d b16d 1f3e 404d 76be
00000250: e15f 8a3c f4a0 253d 78f5 6e3c 5aa5 9c3d
00000260: 023b f73c a995 ae3d 6709 6bbd 6369 f8bd
00000270: fc7a 00be a29b fc3c 34b9 4bbe 54fc 17be
00000280: 462a 263d 67e3 9ebd 4b07 d3bd e46a b43d
00000290: bc93 b43d bc33 bfbe e343 03bd 9a48 123c
000002a0: 418f dc3d ecc5 62be 74f0 413d 5801 af3b
000002b0: 2ca0 123e ca0c 643d f1a3 8abd aab8 3bbe
000002c0: 1896 b0bd b53c 00be 1c99 8cbe 6ec9 db3d
000002d0: 4996 e13c 88ac b53d a50f 2f3e ab66 e3bd
000002e0: f710 353c 95ef 533d e486 6bbe b711 183c
000002f0: 15a8 e2bc 60c7 82be 90a3 d13e 63b7 c5bd
00000300: 85ac 4dbd a536 4bbe 6fd3 3abe 1e03 35bc
00000310: 5bdf 54ba c3b6 42be 04ae 613c 2be9 02be
00000320: 626b f13d b1c8 633e 82fb 033d b59d a33d
00000330: 8ef0 e9bd 43ed f73d 1e95 00be 1097 6f3d
00000340: a0ff 5ebe dfd8 2cbe 2349 25be de5a e63d
00000350: 18e9 5dbe f16b fcbd 9e04 88bd 0cc2 aabe
00000360: c2be c03d 81da 2c3d 0fdd 42be b5b2 11bd
00000370: 831d 503e 5d9b 8cbd f158 0fbe ba3d 3dbd
00000380: aadb 9a3c 9f8c c4bb 1ec6 58be 75fb 8a3e
00000390: 8ee1 09bd d3ff c1bd 51f9 4bbe aa6d 15bc
000003a0: eb2d 89bd e7bb f2bd 59e9 1bbd 3803 0ebe
000003b0: cae4 623e 8997 59be 0211 163e d456 81bb
000003c0: e73f 0cbd 5d51 373c d9a8 7bbe fd0c d93d
000003d0: 9646 313e 39e3 1e3e c4e2 023e 58a1 56be
000003e0: ec58 a63d f133 223e 5643 8c3e e07f 7dbd
000003f0: cb2d 933d e748 bfbd 10a2 97bd 925d 053e
0.11100637 0.10079541 0.17041272 -0.10984306 0.048844762 -0.11170686 0.12729348 0.18140109
0.077317074 -0.059195023 0.00047253017 -0.14304231 0.16557169 0.1954261 0.05802741 -0.08203613
-0.12717222 0.16179 0.25418723 -0.19239433 0.05707112 0.12042398 0.012774711 0.17273371
0.06995254 -0.058956206 -0.02617602 -0.016691802 0.005276743 0.052860595 -0.28446597 0.05280042
-0.14179128 -0.052787367 -0.14387226 -0.20065849 -0.094073884 -0.1754162 -0.048002705 -0.04854649
0.20666343 0.13805708 -0.025039995 -0.042264976 0.13710465 -0.22278759 0.010048267 0.022587515
-0.17227599 -0.13462052 0.061472885 0.21987478 -0.059605807 -0.16488655 0.012950367 0.28251308
-0.008755891 -0.1895712 0.108028136 0.054592747 -0.094642416 0.33995527 0.2237175 0.28683656
0.12703995 0.19782507 0.03433997 -0.13319135 0.03244942 -0.27481484 0.13074112 -0.038373314
-0.09061593 0.25941345 -0.11443678 0.06887682 -0.29155204 -0.012186427 -0.030316219 0.16489673
0.0698621 0.09140482 0.13088803 -0.08488275 0.17184243 0.03785046 -0.25309622 -0.20674402
0.38521042 0.100971155 -0.2772518 -0.122383595 0.13898982 -0.038922478 -0.0045050653 0.20132032
0.17863803 0.028070997 -0.4149715 0.054572117 0.19515094 -0.25422502 -0.029031202 0.0038611745
-0.22485335 -0.078218624 0.080941305 0.0022602943 0.227632 -0.08316769 0.12695818 0.09487094
-0.12493476 0.0067956164 -0.016350517 0.0878807 -0.18478042 0.054040764 -6.344577e-05 -0.0051551936
-0.013143718 -0.1418845 0.057167966 -0.0365514 0.023275012 0.077230565 0.07994475 -0.22926432
-0.035210088 -0.055838328 -0.26269153 -0.007162823 -0.16459057 -0.04868734 -0.19392358 -0.093456894
0.2852662 0.268191 0.016550712 -0.06326057 -0.29267433 0.014380399 0.24485238 0.23314029
-0.12541552 0.09197847 0.15569188 -0.24052906 0.016891422 0.0404367 0.0145848915 0.07648726
0.030179504 0.08524639 -0.057382014 -0.12129476 -0.12546915 0.03083593 -0.19894868 -0.1484235
0.04056766 -0.07758217 -0.103041254 0.0880945 0.088172406 -0.37344158 -0.032047164 0.008928442
0.10769511 -0.22145814 0.047348455 0.0053407364 0.14318913 0.05567626 -0.067695506 -0.18332162
-0.08622378 -0.12523158 -0.27460563 0.10731779 0.027537482 0.08870798 0.17095812 -0.11103567
0.011051408 0.051742155 -0.23000675 0.009281567 -0.027668038 -0.25542736 0.409451 -0.09654119
-0.050213356 -0.19845064 -0.18244718 -0.0110481065 -0.0008120441 -0.1901503 0.013774399 -0.12784259
0.1178806 0.22244526 0.03222228 0.079890646 -0.11422835 0.12105801 -0.12556884 0.058493674
-0.217772 -0.16879605 -0.1614118 0.112478 -0.2167095 -0.12325276 -0.06641506 -0.3335117
0.09411384 0.04220057 -0.1902964 -0.03557082 0.20323758 -0.06865571 -0.13998772 -0.046201445
0.018903572 -0.0059982087 -0.21169326 0.2714497 -0.03366237 -0.09472623 -0.19919325 -0.009120384
-0.06698211 -0.11852246 -0.038064335 -0.13868415 0.22157589 -0.21249212 0.14654925 -0.0039471183
-0.03424063 0.011188832 -0.24576129 0.105981804 0.17312083 0.15516366 0.12781817 -0.20959985
0.08122429 0.15840127 0.27395123 -0.06188953 0.07186469 -0.09340077 -0.07403958 0.13023975

network_body._body_endoder.seq_layers.0.bias f4 [256]
00000000: 7578 123d a438 753b 1da3 4bbb 6569 b23c
00000010: a230 b53a 5fde 853b 09d1 d83c d580 71bc
00000020: 9a28 173d b544 13bc 1794 333a 5b2c be3c
00000030: d07a 7a3c e051 3b3b 636a 503a ae9e e63c
00000040: 33b2 0bbc 4508 063d f221 673d d0b3 ef3c
00000050: 295a b83c 090c 4abc 03b9 053d 10b8 acbc
00000060: 04d2 74bc 853f 493c a498 df3b a343 c93b
00000070: b6a9 20bc ad55 c33b 083b ca3c 1fea c3bb
00000080: b406 5f3c 5919 8bbb eb2e 043d 1690 823d
00000090: 16c4 ad3b 2d1c af3c 3126 133d 70f1 e83c
000000a0: f0d3 ce3c 9b7a 1a3b 9c66 d03c 105f 203c
000000b0: d747 833c da3a a33d 6b54 303d c3ef ae3c
000000c0: 6d3c af3c 3795 71bc 462a ae3b b647 933c
000000d0: ea2b e83b b2e0 6e3d 97c3 91bc 94f4 703c
000000e0: ea55 afba 34f0 fbbb a208 02bc a17a 2ebc
000000f0: 2ece 133d c136 c93c f3eb 853d 15df 853c
00000100: d8b0 db3c ca98 b63c 6753 84bc dd35 173d
00000110: c731 203d be66 163d bfcb 91bb eca7 fe3b
00000120: 14ba 3a3d cb1d 45bc 41fb 3b3d 355d 213d
00000130: d91e e93c ba1f 1f3c a20c a83b 1045 253c
00000140: 1142 1b3d e168 773c d31c 283c 7855 aa3c
00000150: b1f8 983b 555b ecbb 5bf9 2b3c 222e cd3c
00000160: 4bcb 9a3c 2352 7d3d 676f c93b ba30 013d
00000170: 5af1 253c cf07 163a 3bba ccbb a349 f63c
00000180: 6148 ac3c acf9 ab3b 8c85 443c 3580 d4ba
00000190: 38e5 f1bb 49b2 563d 4f7d e23c 047b 3a3d
000001a0: 050f 413c 7950 953c bbfd 7c3d b814 89bc
000001b0: 1a46 c53c 1db7 d13c 9952 6dbc 117c 433c
000001c0: 608a 073d 3faf 00bc 4e59 1a3c cfc5 06bc
000001d0: 6d5a 153a 9909 c2bc 733c a13c 27fe eabb
000001e0: 6620 013c e763 1d3d 8cd7 d63c d16f 81ba
000001f0: 4655 9c3c e9c1 9f3c 0a2d b73a 6025 42bc
00000200: fd79 a1bb d4cf 083d d761 4f3d d6e2 943c
00000210: bd52 f43c c49c 0a3d 9b6b c23c a20d 103d
00000220: 8baf 0d3d 989a b33c daab 4e3a b98d 9f3c
00000230: 605c 433c b68a 083b 6cb0 373c cbd4 113d
00000240: 9a1b b8bc 8d57 d93c 51e6 a53b fdfa 2c3c
00000250: db20 4fbc 5138 6a3c 7cee 7c38 ae28 f1bb
00000260: 0107 e13b 2c19 7ebc 0b2d 383d 5ea8 fdbb
00000270: d211 fdbc 3ee3 303c edff 6b3c 74a9 4d3d
00000280: 5085 9bbb 2345 333d 3cf9 8a3c 6f81 1abc
00000290: aaf4 a53c 938d 40bc 73cb fcbc 87b3 70bc
000002a0: fb8d a93c dfd8 fc3b 6386 b9bb e647 f13c
000002b0: c035 0a3d 68fb af3d 323f 153d cb86 b23c
000002c0: 6cdf 403d 1793 f33b a421 c1bb 806a f73c
000002d0: 5af9 04bc c47a 8ebb fa70 863c c9bd 263c
000002e0: ba25 123c 9b7a b7bb 6e1c 353b 906e 143d
000002f0: b65f a5bc 45c4 473c 86a6 e13c edb8 513c
00000300: 6236 193c f4bb 403d 084f 80bb a751 14bc
00000310: ff11 c0bb dfa4 8c3b cf20 463d 8668 033c
00000320: d37c d03b a601 4f3c 9620 763b 907d 383d
00000330: c7e4 823c 3cd6 4b3c 450b 6b3c d9ca d63a
00000340: 2ff4 be3b dde4 7f3c bfea e73c 8c1b 31bc
00000350: a30c 113c 56cc 1e3d f84c 973b c59a 693c
00000360: d422 b03c 8750 063d 4846 7d3c 03b6 0f3d
00000370: 4871 a93c bc8f 17bc d756 f03b 274d 4fbc
00000380: 7687 a4bc 906b ef3c cd16 9a3b 4777 ec3c
00000390: f24a 0c3c 8df4 b23c 58f7 253d c653 cd3c
000003a0: a7c9 853c 4c95 a5bb 15da 1fbc d884 503c
000003b0: 129a 133b c552 493d 29c3 183d a837 693c
000003c0: b74e 573c 4b15 273d e7a1 053c 3659 933c
000003d0: 4cee 283a 2f13 b93b 042b 7fbc 159f 123c
000003e0: 0763 a13c 455e 823b 613e 91bc 723e 873c
000003f0: 2cc8 c7bc 8926 12bc 6a20 10bc 0286 cdbb
0.035759408 0.0037417794 -0.0031072565 0.021778772 0.0013823698 0.0040853466 0.026466863 -0.014740189
0.036903955 -0.008988549 0.0006850375 0.02321451 0.01528807 0.0028582737 0.0007950423 0.028151836
-0.008526373 0.03272273 0.056428857 0.029260546 0.02250393 -0.012331971 0.032647144 -0.021083862
-0.01494265 0.012283211 0.006823616 0.006142096 -0.009806087 0.005961141 0.024686351 -0.005978837
0.013612438 -0.004244965 0.032271307 0.063751385 0.0053029163 0.02137574 0.035925094 0.028435439
0.025247544 0.0023571614 0.025439553 0.00978829 0.016025467 0.079702094 0.043049257 0.021354562
0.021391118 -0.014745048 0.005315098 0.01797853 0.007085313 0.058319755 -0.01779346 0.0147067495
-0.0013377045 -0.0076885466 -0.007936629 -0.010649354 0.0360853 0.024562242 0.06539144 0.016341725
0.026817724 0.022289652 -0.01615305 0.036916602 0.03910997 0.036719076 -0.0044493373 0.0077714827
0.045587614 -0.012031029 0.04589391 0.03939553 0.028457092 0.009712154 0.005128459 0.010087267
0.037904803 0.015100689 0.0102607785 0.020792708 0.004668318 -0.007213036 0.010496463 0.025046412
0.018895766 0.06184591 0.0061473134 0.03154061 0.0101283435 0.00057232095 -0.0062477863 0.03006441
0.021030607 0.005248269 0.011994731 -0.0016212525 -0.0073820613 0.05241612 0.027647642 0.045527473
0.011783366 0.018226849 0.061765414 -0.016733512 0.024081279 0.02560001 -0.014485025 0.011931435
0.03309095 -0.007854282 0.009420706 -0.008225872 0.00056973734 -0.023686217 0.019682145 -0.0071714106
0.00788126 0.038425352 0.026225828 -0.0009875243 0.01908363 0.019501643 0.0013975215 -0.011849731
-0.004927872 0.033401325 0.050630417 0.01817457 0.029824609 0.03384091 0.02373295 0.03516925
0.03459124 0.021924302 0.0007883884 0.019476758 0.011923879 0.0020834631 0.011211496 0.035603326
-0.022474099 0.026531005 0.0050628562 0.010557887 -0.012642111 0.014295653 6.0303588e-05 -0.0073595857
0.00686729 -0.015508931 0.04496483 -0.007741018 -0.030892286 0.010796366 0.014404279 0.05021043
-0.0047461167 0.043767106 0.016964547 -0.009430273 0.020258266 -0.011752504 -0.03085873 -0.01469124
0.020697584 0.0077162827 -0.005661772 0.02945323 0.033742666 0.08592874 0.03643722 0.02179279
0.04708807 0.007433306 -0.005893903 0.03020215 -0.008116091 -0.004348131 0.016411293 0.010177084
0.0089201275 -0.0055993325 0.0027635354 0.036238253 -0.02018724 0.01219279 0.027545225 0.012800437
0.009351345 0.047054246 -0.0039156713 -0.009052671 -0.0058615203 0.004292115 0.048371132 0.008020526
0.0063625365 0.01263467 0.0037556044 0.04504162 0.01597823 0.012441214 0.014345949 0.0016387358
0.005827449 0.01561853 0.028310178 -0.01080979 0.0088531105 0.03876909 0.0046173297 0.014258091
0.021500982 0.03279164 0.015458651 0.03508569 0.0206839 -0.009250578 0.007334571 -0.012652672
-0.020084124 0.029226094 0.004702425 0.02886547 0.00856279 0.021845127 0.04051909 0.02506436
0.016331507 -0.005053198 -0.009756585 0.012726985 0.0022522253 0.0491512 0.037295494 0.014234461
0.013141326 0.04079179 0.008156276 0.017986875 0.00064442004 0.005648039 -0.015574221 0.008949061
0.01970054 0.003978523 -0.01772994 0.016509268 -0.024387442 -0.00892032 -0.008796791 -0.0062720785

network_body._body_endoder.seq_layers.2.weight f4 [256, 256]
00000000: 5bf6 7bbc 6025 803d dc2c 5b3d a205 933d
00000010: 95a8 febc 2fc5 cabb add1 e43c 72dc bf3d
00000020: e236 e93d e376 e23c dc65 2e3d dba8 bb3d
00000030: 037d 3a3d 96bc 4ebd 2b7e f13c 458d a33d
00000040: 0478 9c3d 839d b53c 1245 be3d f241 513d
00000050: c326 263e bb22 ef3d e0d7 d53d a5f3 2dbc
00000060: 96bf 29bd 5776 353d f963 5c3d 7ed2 4b3d
00000070: b6b7 b1bd 9ca6 ef3d bdf5 443b 1659 0a3d
00000080: 242a 00be b240 27bd 0950 3f3c b9ce e23c
00000090: b106 0ebd d28e 77bd 2dc7 bcbd 3c25 a73c
000000a0: 41cc bf3d 4cf4 5338 ce43 473c 1c8a 203c
000000b0: 3384 f5bd 5ed9 f53d ea03 163d a771 72bc
000000c0: 231e 723d db02 18bd cc82 a83d 2f82 633e
000000d0: cd7b 423c a657 3f3d deb4 08bc 0a39 d83c
000000e0: 7398 14bd b7da d5bd 5df3 39bb 1868 cf3d
000000f0: 9781 2d3d 3e13 3e3c eb2a c5ba 3e4f 5d3d
00000100: 6a7b 323d 0bbc 75bd 462d 64bd 71d3 9c3c
00000110: 394b 733c 4c68 5ebc cee5 013a df6f 923d
00000120: 331e ad3d 3f56 57bd 5d9c 033d ed38 c13c
00000130: 1140 833d 23bb 493d fa5e c0bd bcfb ee3d
00000140: cb3d f43c 125d 3cbe 36cc a43d 415a 023e
00000150: 1df6 e3ba be82 a4bd 5da0 f63d 5721 853d
00000160: 18b6 4bbd b807 e23a 8d09 59bd 6232 923d
00000170: f123 af3c a39b 6d3d c42f cebd ac04 793c
00000180: e70e fb3c 78fa ba3b 2871 60bd ccaf e7bb
00000190: 2399 45bd f96f f6bb 471e e9bc 31f4 c1bd
000001a0: d1f1 47bd 14f5 02bd a579 e1bd e33c 1a3d
000001b0: 6d92 cebd 9fb8 3b3d 2b0d 5abe 1b49 79bc
000001c0: c2c1 dbbb 173c 1dbd 621f 0dbd 23ea 03bd
000001d0: 3bda d4bc c176 46bd 7af0 fdbc fd4c 09be
000001e0: 52ea b6bd b152 083e 4282 123e 4a5d d43d
000001f0: 6bb7 c8bd 45a0 ff3c d78c c63d 2894 f53c
00000200: 8be5 a1bd 6196 7bbd a387 b43c b219 8ebd
00000210: 9f6b 5f3e fff6 e43c a848 a93c e181 903b
00000220: d48f b43d 3a5c d93c ab41 d6b8 7d0a ffbc
00000230: 3f8d 793d 3e95 24bc 2b12 56bd 7697 2abc
00000240: 69d2 e43d 7a95 aabc 9703 b7bd 8f9d 5e3d
00000250: af36 623c 5d4c a33d 3204 cc3d 4aad 2bbd
00000260: bb50 9bbc 6185 a33a 45ff 0f3e c596 003d
00000270: f9a2 62bc 7290 073e 115a 1d3e a764 7d3e
00000280: 466a 6cbd 9c26 05bd e4fc c4bc b568 183c
00000290: d773 9e3d 9e0a b43d 3db1 0bbe 5d0d 2a3d
000002a0: b888 613e 0972 b53d 2ff0 0cbe 4c9e c53d
000002b0: 4496 1a3e 0fe8 343d 8c67 cb3c 270b bbbd
000002c0: 818c 8a3d c044 f93d 0e6f 09bd aa50 a2bd
000002d0: e93c 32bd 9d47 973d 6b17 9d3d ab2d f6bb
000002e0: 9832 9839 22cb db3c 4648 a3bd 2337 4bbd
000002f0: 3f96 c0bc 202d 0f3e 7f11 cdbd ec87 7e3d
00000300: ce41 12bd a31a ec3d aa86 a33c 6240 293d
00000310: 2b62 b9bd dc00 e73c c704 003e 1772 dc3d
00000320: 8ee0 86bd e89a 9c3d 9360 3bbd 1029 823b
00000330: db81 ef3b d7bd a5bc 51e6 74bd 19b2 023c
00000340: 3650 4dbd afbe 0a3c 6c32 0d3d b999 96bd
00000350: 4d1c 9b3d 7f77 f2bc a9b1 3ebe b350 dcbd
00000360: bb05 073e 623d 833d 1690 ff3c ce39 163c
00000370: fbc2 753d 33b2 4c3c 27fe a1bd 9af6 a7bc
00000380: 4bc4 c4ba 1cd6 f83d 69ea 03bd 3fdf b7bb
00000390: 99b5 ebbd 3dbe 8abc b4c6 df3d 8054 42bb
000003a0: d887 31bd eece 9f3c 77c6 0fbd 0877 fdbc
000003b0: 3ff7 e0bd f719 ac3c 4f4f ad3c 0152 c83d
000003c0: f08e dcbb 31c4 eebb edca 09bd 35bd cfbc
000003d0: 774c 70bd 9a02 f9bb b1e4 47bd 52fc 3fbe
000003e0: d7fb 933d 80f9 88bd e2f0 0b3d e5d6 33bd
000003f0: 8cc9 06bc d2f2 583d 802c 0dbd c383 0e3d
-0.01537856 0.06257129 0.053509578 0.07178809 -0.031086246 -0.006188057 0.027932012 0.093682185
0.11387421 0.02764458 0.04257761 0.09163066 0.045529377 -0.05047282 0.029479107 0.079859294
0.07640079 0.022169834 0.09290518 0.05108828 0.16225724 0.11676546 0.104415655 -0.010617171
-0.041442476 0.04430231 0.05380628 0.049761288 -0.08677618 0.117017 0.0030053698 0.033776365
-0.12516075 -0.040833183 0.011676797 0.027686464 -0.03467435 -0.06043894 -0.09217677 0.020403497
0.0936513 5.053384e-05 0.012162162 0.009798553 -0.119881056 0.1200435 0.036624826 -0.014797605
0.059110772 -0.0371121 0.082280725 0.2221763 0.011870337 0.046714447 -0.008343903 0.026394386
-0.0362782 -0.10442107 -0.0028373816 0.10127276 0.042359915 0.011601267 -0.0015042698 0.05403065
0.043574728 -0.059993785 -0.05570724 0.019143792 0.014849477 -0.013574671 0.0004955203 0.07150244
0.08453026 -0.052572485 0.03213154 0.023586715 0.06408704 0.049250733 -0.09393115 0.11669108
0.029814621 -0.18394879 0.08046763 0.12729742 -0.0017392073 -0.080327496 0.120423056 0.065005
-0.049734205 0.0017244732 -0.052987624 0.07138516 0.021379443 0.058009755 -0.10067704 0.015198868
0.030646754 0.0057061277 -0.054795414 -0.007070517 -0.048241746 -0.0075206724 -0.02845682 -0.09470404
-0.0488146 -0.031972006 -0.1100953 0.037655722 -0.10086522 0.045830365 -0.21294086 -0.015215184
-0.0067064473 -0.038387384 -0.034453757 -0.032205712 -0.025982967 -0.048453096 -0.030998457 -0.13408275
-0.08931412 0.13312794 0.14307502 0.10369356 -0.09800609 0.031204352 0.09694832 0.029977873
-0.0790511 -0.06142271 0.022037333 -0.06938495 0.21818398 0.027949808 0.020664528 0.004410014
0.088164955 0.026533235 -0.00010216547 -0.03113293 0.06092572 -0.010045348 -0.05226342 -0.010412088
0.11172945 -0.02082323 -0.089362316 0.05434948 0.013806983 0.079735495 0.09961738 -0.04191331
-0.018959394 0.0012475663 0.14062221 0.031393785 -0.013832801 0.13238695 0.15366389 0.24745427
-0.057718538 -0.032507524 -0.024046369 0.009302308 0.077369384 0.087910876 -0.1364183 0.04151665
0.2202481 0.08859641 -0.13763498 0.09649333 0.15096384 0.04416662 0.024829648 -0.091329865
0.0676508 0.12171316 -0.033553176 -0.07925542 -0.04351512 0.07386706 0.07670482 -0.0075127683
0.00029029394 0.02683026 -0.079727694 -0.04961313 -0.023509143 0.13982058 -0.10013103 0.062141344
-0.035707287 0.11528518 0.019961674 0.041321166 -0.09051927 0.028198652 0.12501822 0.107639484
-0.06585799 0.076467335 -0.045746397 0.00397218 0.007309181 -0.020232124 -0.05978996 0.007977032
-0.050125323 0.008468314 0.034471914 -0.07353539 0.07573757 -0.029597996 -0.1862246 -0.1075758
0.1318578 0.06408192 0.031196635 0.009169055 0.0600004 0.012493658 -0.07909804 -0.020503331
-0.0015012113 0.12150213 -0.032205973 -0.00561133 -0.115092464 -0.016936416 0.109265715 -0.0029652417
-0.04334244 0.019507851 -0.03510138 -0.030940548 -0.109846584 0.021008475 0.021155981 0.09781266
-0.0067309067 -0.0072865714 -0.03364079 -0.025358776 -0.058666673 -0.007599187 -0.04880208 -0.18748596
0.07225769 -0.06688213 0.03416527 -0.04390611 -0.008226763 0.052965946 -0.034466267 0.034793627

network_body._body_endoder.seq_layers.2.bias f4 [256]
00000000: c896 373d 185f 83ba 69a4 e1bb 643a 9a3c
00000010: 2753 303d e38a 1fbc 7312 013d aa39 1b3d
00000020: d8ad 053d b677 463c 6b11 e33c e073 f43c
00000030: 8259 43bc d336 e13c aef8 443c a010 af3c
00000040: 8120 fdbb 09c1 833c 1a44 9039 a44b 3c3c
00000050: cb9b 343c 53e1 e73b 4f96 e137 2af6 25bb
00000060: 62fd bb3b dd81 1bbc dbe2 ea38 322a 1e3c
00000070: 6aa7 ca3c 51ce 7bbc 73cc a93b ae7d 8a3c
00000080: ed8c f53b cb5b bd3c c0d5 343b 6c0c 5a3c
00000090: 8e13 fdbb ba62 123d f2e3 323b 6f4d 943b
000000a0: 26d8 293d 0062 a63c a9b3 d13c baf9 4a3c
000000b0: 382a 59ba d16d 74bc 6a73 8e3c 55d3 173d
000000c0: dff1 1f3d 5d79 eeba 3ff8 b33c 7d8f dabb
000000d0: eedc 663c 7306 5ebb eb0e 80bb 3442 c53c
000000e0: fd77 1e3c d9f6 503c 0717 bf3c 5f54 a53c
000000f0: 784a 0b3c ef62 99bc bc9c 173c 1e8d 5e3c
00000100: ab31 0ebb 7020 1b3d cfe9 2cbc abd1 313d
00000110: 44a4 b9bb bbf6 86bc e8a6 46bc 5a6c 763c
00000120: 8ec1 a73c 5ef7 863c 61a4 813c 7cf0 0b3d
00000130: d81c be3c b755 3dbc f43c bb3c 9c6d 4ebc
00000140: 391a 0f3d 9865 ed3c ad16 37bc 9960 e5ba
00000150: 29e2 6c3c c943 d43c ed0a 9a3b 83fd 9a3c
00000160: 9aa6 50bc ab72 123d 4e78 213d 0cf5 083d
00000170: 4755 e7bb ebaf dd3b 0344 bd3b 7a25 2cbc
00000180: 6fd9 a53b 9e5c bc3c 36de 603c 73e5 de3c
00000190: caaf 0b3d a5a1 f83c d1dc 17bc 4960 723b
000001a0: 6479 d03c 100f b73c 8937 283c a50f 2cbb
000001b0: 4e2d cd3c eb8b 12bc 2641 313c 5174 f43c
000001c0: 555c 97bb fa34 8e3b 7c79 86bc 3cb3 1dbc
000001d0: 16c9 9d3c bbfc b33c f62e 663b afb9 093d
000001e0: 6170 18bc c1f6 32bc ec01 083c 234b 803c
000001f0: 4ff7 f33b 5cfe 013d 11dd 1f3d 0d83 8f3b
00000200: 23f0 4d3c f5b2 a53c 6fbc 183c 165a bfbb
00000210: d54b 7dbc f7e4 2f3c 4ff9 f3bb 06e8 0f3c
00000220: c4ea a63c 6b09 d23b 79f6 eabb b56c 123d
00000230: 5c0c 3e3c fcf0 413c 08a7 a73b eebb b73b
00000240: cdb9 0d3a 71d8 d63b ba9d c23c b82a 6cbc
00000250: 2ecc 843b 6634 ff3b 50dc a83c acfc 6abc
00000260: 8c1f f73c c682 d03b e0ac 573c 4d7c 0d3d
00000270: 1bf1 663c 07b5 b03c 3fe7 133d 8b97 3d3c
00000280: b8be c53c ee4f 873b 400a 53bb a228 9cbb
00000290: dd6a a63c ce0f f03c 7b9e a73c 9aea 103a
000002a0: 8977 0d3c 378f c23c 8524 283b e259 a33b
000002b0: 7321 37bc 1342 143b 7d56 27bc 6cf4 223c
000002c0: 9b72 f23c 11b8 9abb 986d e23c 4ffb f0bb
000002d0: 5e49 d03c 3595 383c c3f7 8e3c a931 4b3c
000002e0: 2948 88bc 56b4 393c 0220 27bc 191f 253d
000002f0: 0082 93bc 2d17 af3c 7ec8 0f3c af34 b53c
00000300: 9a2d 3b3c 11fa 0f3b a12a c0bb 58ea b03b
00000310: 7681 f33c f2d3 c73b e34c 053d c7c7 6abc
00000320: 5249 ad3c 921c d53a f49a cfbb 72cc 353c
00000330: 3291 433c b5cb c93c 0eba 4f3c fcb3 e43b
00000340: b848 febb 6728 003d 1c8c 9f3c 8a0f 0f3d
00000350: 5001 71bb e12a fc3c d28f 3739 a297 933a
00000360: ecbc f83c c2b5 083c 1d17 853b 7d18 6f3b
00000370: c240 0b3c 5e2e 5ebc 7763 a03c 3abb a43c
00000380: 0bd3 bc3c bcec 3d3b 98f6 f13c 737b 05bb
00000390: 67b7 4e3c a4df 713c f7ee 333c 010b 053c
000003a0: 631e 3dbc f1a5 84bb 2f73 303c 21d2 cf3b
000003b0: 6eee 003a a08e 96bc d0bc 4abc 7406 03bc
000003c0: 790f 243c bd92 c23c 2f55 d438 b8d4 753c
000003d0: 7f6e 863c a1b4 b93c b144 d93b a57b a4bb
000003e0: c373 57bc e771 013d 7158 ef3c 447d 023c
000003f0: 574f a0bb 1697 873c 55f9 563c dac5 ae3b
0.04482153 -0.0010022847 -0.0068860543 0.018826671 0.04304805 -0.009737703 0.031511735 0.03789679
0.032636493 0.012113502 0.027718266 0.02984041 -0.011923196 0.027491963 0.0120221805 0.021370232
-0.007724822 0.016083257 0.0002751656 0.0114926435 0.011023472 0.0070764213 2.6892083e-05 -0.0025323727
0.0057369927 -0.009491411 0.000112002446 0.009653615 0.024738032 -0.015369014 0.005181843 0.016905632
0.0074936063 0.02311506 0.0027593225 0.013308626 -0.0077232784 0.035738684 0.002729651 0.0045258324
0.0414659 0.020310402 0.025598364 0.012388641 -0.0008284184 -0.01491876 0.017389018 0.037066776
0.039049026 -0.0018194128 0.021968959 -0.006669937 0.01409076 -0.0033878356 -0.0039080284 0.02407942
0.009672162 0.012754166 0.02332641 0.020181833 0.008501641 -0.018723933 0.009253677 0.01358345
-0.0021697085 0.03787273 -0.010553791 0.043412846 -0.005665334 -0.016475072 -0.0121247545 0.015040481
0.020478036 0.016475376 0.015825452 0.03416489 0.023207113 -0.011556081 0.022856213 -0.012599375
0.034937117 0.028979108 -0.01117484 -0.0017500102 0.014458218 0.025911229 0.0047010095 0.018919712
-0.012735033 0.035753887 0.039421372 0.03343682 -0.0070597264 0.006765356 0.00577593 -0.010506982
0.0050613205 0.022993382 0.013724854 0.02720902 0.034103192 0.030350516 -0.009268955 0.003698366
0.025448509 0.02234605 0.010267147 -0.0026254442 0.025046017 -0.008944492 0.010818755 0.02984062
-0.004619161 0.0043398114 -0.01641535 -0.009625252 0.019260924 0.021971097 0.0035123206 0.033624347
-0.009304137 -0.0109230885 0.008301239 0.015660828 0.007445253 0.031736717 0.039029185 0.004379636
0.01256946 0.020226935 0.00932227 -0.0058395965 -0.015459974 0.010735742 -0.0074454914 0.008783346
0.020375617 0.006409814 -0.007170495 0.035748202 0.011599626 0.01183724 0.005116347 0.0056071198
0.00054064096 0.0065565635 0.02375685 -0.014414482 0.0040526604 0.007788229 0.020612866 -0.014342468
0.03016641 0.0063632457 0.013163775 0.03454237 0.01409557 0.021570696 0.036109205 0.011571775
0.024138793 0.0041294014 -0.0032202154 -0.004765586 0.020314628 0.029304411 0.020461312 0.00055281224
0.008634456 0.02374993 0.0025656533 0.00498508 -0.0111774085 0.002262239 -0.0102134915 0.00994597
0.029595664 -0.0047216495 0.027640149 -0.007354177 0.02542561 0.0112660425 0.017452126 0.012401977
-0.016635971 0.011334499 -0.010200502 0.04031286 -0.018006325 0.021373356 0.008775828 0.022119848
0.0114244465 0.002196912 -0.0058644568 0.0053990297 0.029724818 0.006098264 0.032544028 -0.014329857
0.021153126 0.0016259125 -0.0063356105 0.011096107 0.011936473 0.024633268 0.012678636 0.0069794636
-0.0077601336 0.03128853 0.019475989 0.03492693 -0.0036774464 0.030782165 0.00017505817 0.00112604
0.030363522 0.008344116 0.004061593 0.0036483102 0.008499326 -0.0135608595 0.019578679 0.020108808
0.023049852 0.0028980216 0.02953653 -0.002036777 0.012616969 0.014762793 0.010982267 0.008120299
-0.011542889 -0.004048102 0.010769649 0.006342188 0.00049183413 -0.018378556 -0.012374118 -0.007997144
0.010013455 0.02375161 0.000101248144 0.015004329 0.01641011 0.022669138 0.006630503 -0.0050196224
-0.013150158 0.031602766 0.029216977 0.007964436 -0.0048922705 0.016551536 0.013120969 0.0053336443

action_model._continuous_distribution.log_sigma f4 [1, 5]
00000000: c5ce 7fbe e978 3fbe 8318 58be 838f 33bc
00000010: d3d9 08bd
-0.2498122 -0.18698467 -0.211031 -0.010959509 -0.03341086

action_model._continuous_distribution.mu.weight f4 [5, 256]
00000000: ce7b 2cbd 0ef4 c138 746b 85bc 4643 473d
00000010: e7d1 463c ddf3 643d 5937 c43b c3c8 3b3c
00000020: a3f7 243d bdb4 613d c0e4 a13c 80b3 1abd
00000030: 8a5a a8bc 2a0d 5c3d 5402 7f3d 55db 71bd
00000040: daaa 5b3b 3856 333b d60b 8a3d f69b 1a3b
00000050: 061b 0dbd 6762 e6bc 8cbb 523d 10cb c5bc
00000060: 9fc9 423c 9f8c 72bd 85a8 a6bc d5c7 013d
00000070: 6e5b 5fbd a32a 413b b1bd 9bbc 1e2b 763c
00000080: 1e4d 21bd 66cf 9abc ef77 0ebc e110 9e3d
00000090: a98f 54bd 6eae 19bc d11f a33c 62bd b7bc
000000a0: 57b0 913c 4c3a 16bd 3fdf 87ba b996 143d
000000b0: d3ed 23bd 1667 f33c 5f92 59bd fff3 d13c
000000c0: 164d 8f3b 4cb8 623d 1dbc 9e3c 9034 433d
000000d0: e55d a0bd 6fe3 5d3c 8a4f b4bd ba7c 90bd
000000e0: 7fb7 44bb b158 cfbb 62f1 c6bc 1889 9e3d
000000f0: ec14 00bd d690 ffbc f6ae b73d e342 d6bc
00000100: e1fe e6bc 0ec6 ad3b 9f6e 0abd 33e7 2c3c
00000110: 26ec 033c c429 aebc f3da 32bd 733e b53d
00000120: f3d2 d7bc 5bd4 1dbd fa64 9bbc f049 84bc
00000130: beae 44bd 53f3 56bb 8e97 d03c 91cf 1a3d
00000140: 7727 49bb 7a5a d9bc 667b 16bd f0c8 2ebc
00000150: 0af1 9c3c 7afb 053d 5859 7cbd 2aaf 1abd
00000160: 10f4 f83c 3d67 583c 0271 c93c cc29 023c
00000170: aac2 3c3b bde8 693c 42c5 36bc d145 573a
00000180: de3d 6bbb df92 5e3d 6b8f 39bd 72dc 6dba
00000190: 2bd3 3fbd 78c5 e3bc 721f 4fbd 1232 2bbd
000001a0: 8332 823b 32a8 92bc a830 7d3c 8b27 83bb
000001b0: 0f48 a63d 0894 aebc a645 0ebd 7c65 773d
000001c0: 6fb8 d33c 51f3 80bd c566 163c 2314 133b
000001d0: 637d 28bd dad0 f93b bc65 48bd e830 fcbb
000001e0: 3eb7 c8bc ae64 283d 9195 d5bc 0292 45bc
000001f0: a21e 393d f58a 353d c3d4 903c b895 6f3c
00000200: dfa1 c9bb f337 2abd bc95 6cbd 1763 8bbd
00000210: c48a f2bb 1069 e73b f5a8 3dbd 8958 b43b
00000220: 30c5 263c 528a c5bc babd d8bc c94e 283d
00000230: a15d c53c f756 293c bb8f 06bd 8590 5ebb
00000240: 946f f4bc f915 48bd 244f 8bbc f599 223d
00000250: 4eec 54bc bc10 223c 3fba 093d dade a53d
00000260: 1275 583c ef35 973d 8af6 453a 43f0 47bc
00000270: a878 c63c cdba 163d 41ef 2a3d 15da 3bbd
00000280: 9822 4bbd c2a2 1f3d 9156 273d 7ed6 303d
00000290: 524d 203c 80c4 383c e642 65bd c2eb 04bd
000002a0: 320c 84bc 2789 b63b 4acc b23c 2b94 37bd
000002b0: e37d 093d 4341 37bd b077 1d3d bdbc 0e3d
000002c0: 8b3b 28bc fc9e 2e3d 0241 d83b 7ac0 f9bc
000002d0: 9beb 103d 0f34 71bd 5464 9dbd a584 173d
000002e0: f686 3fbd bb40 a33b 2b87 5d3d bb4c 1bbd
000002f0: 9169 803d 7603 813c c4e4 4f3d eda9 8abc
00000300: a1c0 0b3d 83dd c63c dfdd 71bd 3a39 2fbc
00000310: 3166 0d3d de2a a53c 5b6a 44bd 0fe1 35bc
00000320: 8844 36bc 5cdd 4d3d 444e 8abc 7d5a 70bb
00000330: 66cc ccbc 3618 28bd c0ea 16bb b3ac adbc
00000340: 06f5 0bbd 9d68 ae3b 528d 9fba 7570 703c
00000350: d919 06bd a252 b43c 5453 b4b9 5dfc 89bd
00000360: 0246 a3bd 7926 7c3d 3030 c8bc 7584 acbc
00000370: f143 edbc e17c a0bb da05 52bd f659 053d
00000380: 2ad5 813d aafa 9cbd 9302 663d 769c bb3b
00000390: 4528 5b3d 57f0 d3bb 8355 d3bb 5ef0 acbc
000003a0: 3e03 4a3d 2e7c 6cbc 240b 73bd 73d0 9fbc
000003b0: f8f5 84bd f619 973c 2392 85bc 5e31 1d3a
000003c0: 4c32 f93c 2558 48bd 3d1a 33bd fda4 563d
000003d0: 7e21 373d 115f 063d faca ba3b 40ba 3b3c
000003e0: f38e c13c 0d5a ce3b 9983 c9bc bcbf b93c
000003f0: b14f 66bd e823 3f3c d2f4 8a3c 2d31 0abd
-0.042110257 9.248416e-05 -0.01628659 0.04864814 0.012135006 0.05589663 0.0059880433 0.01146144
0.040275227 0.055104006 0.019762397 -0.03776884 -0.020550985 0.05372349 0.06225808 -0.059047062
0.0033518584 0.0027364623 0.06740539 0.0023591495 -0.0344496 -0.028123094 0.05144839 -0.02414468
0.0118888905 -0.059216138 -0.020344028 0.031684715 -0.054530554 0.0029474876 -0.01901135 0.015024928
-0.039380185 -0.018897723 -0.008695587 0.07718063 -0.051894818 -0.009379966 0.019912632 -0.022429172
0.01778428 -0.03667669 -0.0010366215 0.036276553 -0.04002173 0.029712241 -0.053118106 0.025629042
0.004373203 0.05535154 0.019376809 0.04765755 -0.07830409 0.013542994 -0.08804233 -0.0705504
-0.0030016599 -0.0063277115 -0.024285022 0.07740992 -0.031269953 -0.031196993 0.08968918 -0.026154941
-0.028197708 0.005303151 -0.033796903 0.010553169 0.008051908 -0.02126015 -0.043665837 0.08849802
-0.026345706 -0.038532596 -0.018969048 -0.016148537 -0.04801821 -0.003279884 0.025462892 0.037795607
-0.003069369 -0.0265324 -0.036738776 -0.010668024 0.019157905 0.03271053 -0.061608642 -0.037764706
0.030389816 0.013208208 0.02459002 0.007944535 0.0028802552 0.014276681 -0.011155428 0.00082120026
-0.003589503 0.054339286 -0.04530279 -0.00090736814 -0.046832245 -0.027804121 -0.050567098 -0.041795798
0.0039733066 -0.017902467 0.015453495 -0.0040025166 0.08119213 -0.021310821 -0.03473439 0.060399517
0.02584478 -0.06296409 0.009179776 0.0022442422 -0.041135203 0.007623774 -0.048925146 -0.0076962598
-0.02450144 0.04111164 -0.026072295 -0.012058737 0.04519523 0.044321973 0.017679578 0.014623098
-0.0061533297 -0.041557264 -0.057759985 -0.06806009 -0.007401796 0.007062085 -0.046303708 0.0055037183
0.010178849 -0.024113808 -0.026457656 0.04109076 0.024092497 0.010335675 -0.032851916 -0.0033960652
-0.02983836 -0.04884908 -0.01700551 0.039697606 -0.012995793 0.009891685 0.033624884 0.08099146
0.0132115055 0.07383334 0.0007551691 -0.012203279 0.024227455 0.03679924 0.041732077 -0.045862276
-0.049593538 0.038973577 0.04085404 0.043173306 0.00978406 0.011277318 -0.055972002 -0.0324514
-0.016119096 0.005570549 0.021825928 -0.04481904 0.03356732 -0.044739973 0.03844422 0.034847964
-0.010268102 0.042632088 0.0065995464 -0.030487288 0.03538094 -0.058887538 -0.07685152 0.036991734
-0.04675957 0.0049820817 0.054083984 -0.037914973 0.06270135 0.01574872 0.050755277 -0.01692673
0.034119252 0.024275547 -0.059049483 -0.010694796 0.034521285 0.020162042 -0.04795299 -0.011101021
-0.011124738 0.050259933 -0.016883023 -0.003667503 -0.024999809 -0.041038714 -0.0023028105 -0.021200513
-0.03416922 0.0053225295 -0.0012172854 0.014675249 -0.032739494 0.022012059 -0.0003439436 -0.067375876
-0.07972337 0.061560128 -0.02443704 -0.021059254 -0.028963061 -0.004897699 -0.05127511 0.032556497
0.06339486 -0.07664998 0.0561548 0.0057254387 0.0535052 -0.0064678597 -0.006449403 -0.02111071
0.0493195 -0.014433904 -0.059336796 -0.019508576 -0.06492227 0.018444996 -0.016305035 0.0005996431
0.030419491 -0.048912186 -0.043726195 0.05240344 0.044709675 0.032805506 0.005700466 0.01145798
0.023627734 0.006297356 -0.024598883 0.022674434 -0.056228343 0.011666276 0.016962443 -0.033738304

action_model._continuous_distribution.mu.bias f4 [5]
00000000: 961f b6bb cca0 b63c 4e2e 6a3b 9289 ab3c
00000010: 20f5 873b
-0.0055579646 0.02229347 0.0035733166 0.020939622 0.004149094
